…
n())\n","#model.add(Dense(512, activation='relu'))\n","#model.add(Dropout(.4))\n","model.add(Dense(256, activation='relu'))\n","model.add(Dropout(.2))\n","model.add(Dense(64, activation='relu'))\n","model.add(Dropout(.2))\n","model.add(Dense(10, activation='softmax'))\n","\n","model.summary()"],"execution_count":83,"outputs":[{"output_type":"stream","text":["_________________________________________________________________\n","Layer (type)                 Output Shape              Param #   \n","=================================================================\n","conv2d_48 (Conv2D)           (None, 32, 32, 32)        416       \n","_________________________________________________________________\n","conv2d_49 (Conv2D)           (None, 32, 32, 32)        4128      \n","_________________________________________________________________\n","max_pooling2d_35 (MaxPooling (None, 16, 16, 32)        0         \n","_________________________________________________________________\n","dropout_58 (Dropout)         (None, 16, 16, 32)        0         \n","_________________________________________________________________\n","conv2d_50 (Conv2D)           (None, 16, 16, 48)        6192      \n","_________________________________________________________________\n","conv2d_51 (Conv2D)           (None, 16, 16, 48)        9264      \n","_________________________________________________________________\n","max_pooling2d_36 (MaxPooling (None, 8, 8, 48)          0         \n","_________________________________________________________________\n","dropout_59 (Dropout)         (None, 8, 8, 48)          0         \n","_________________________________________________________________\n","conv2d_52 (Conv2D)           (None, 8, 8, 64)          12352     \n","_________________________________________________________________\n","max_pooling2d_37 (MaxPooling (None, 4, 4, 64)          0         \n","_________________________________________________________________\n","dropout_60 (Dropout)         (None, 4, 4, 64)          0         \n","_________________________________________________________________\n","flatten_12 (Flatten)         (None, 1024)              0         \n","_________________________________________________________________\n","dense_40 (Dense)             (None, 256)               262400    \n","_________________________________________________________________\n","dropout_61 (Dropout)         (None, 256)               0         \n","_________________________________________________________________\n","dense_41 (Dense)             (None, 64)                16448     \n","_________________________________________________________________\n","dropout_62 (Dropout)         (None, 64)                0         \n","_________________________________________________________________\n","dense_42 (Dense)             (None, 10)                650       \n","=================================================================\n","Total params: 311,850\n","Trainable params: 311,850\n","Non-trainable params: 0\n","_________________________________________________________________\n"],"name":"stdout"}]},{"cell_type":"code","metadata":{"id":"l_v8zcYv3SO0","colab_type":"code","colab":{}},"source":["model.compile(loss='categorical_crossentropy', opt
…
